git_data/lm_netchop_peptides/models/lm_1l_3_enc.pth (torch_old, 127562 bytes, 7 tensors)

encoder.weight f4 [23, 50]
0	0x4078b47b	3.8860157
1	0xc08ae421	-4.340348
2	0xc0061590	-2.095066
3	0x402f62c4	2.7404032
4	0xc0c283a6	-6.0785704
5	0xc10290be	-8.160337
6	0xc0b6058e	-5.688178
7	0xc0dc0f0e	-6.8768377
8	0x3f84b977	1.0369099
9	0xc09ca0f0	-4.8946457
10	0x40267b92	2.6012921
11	0x409a139d	4.814894
12	0x40169238	2.3526745
13	0xc095b880	-4.678772
14	0x40aa4b1f	5.32167
15	0x3fff532b	1.9947256
16	0xc080bd05	-4.0230737
17	0xc08400e0	-4.125107
18	0xc073c6c9	-3.809008
19	0x4086374d	4.1942506
20	0xbfc5629b	-1.5420717
21	0xc0df8c0b	-6.985845
22	0x3fb451c2	1.408745
23	0xc0b06c79	-5.5132413
24	0x40656bb0	3.5846977
25	0x3f84ea8c	1.0384078
26	0xc08c653a	-4.3873568
27	0x3fbdb905	1.4822088
28	0xc0d5dbf9	-6.683102
29	0x40a947b3	5.2900023
30	0xc0b2502b	-5.572286
31	0xc0a10440	-5.031769
32	0xc04a206e	-3.1582294
33	0xc04c76b3	-3.1947448
34	0x407f4207	3.988405
35	0xc110fbca	-9.061472
36	0xc068ace2	-3.635552
37	0xc07122aa	-3.7677407
38	0x402883a7	2.6330354
39	0x40cefb19	6.4681516
40	0xc0f12d0b	-7.5367484
41	0xc0a0bc96	-5.0230207
42	0xc0ff02d7	-7.9690967
43	0x4084d977	4.151546
44	0xbfddbb3a	-1.7322762
45	0x41001439	8.004937
46	0x40b3c475	5.6177316
47	0x40c8bf6e	6.273368
48	0xbf1d8044	-0.6152384
49	0xc0e51d0c	-7.1597958
50	0x4077baa3	3.8707664
51	0xc08d2666	-4.4109373
52	0xc0071595	-2.1106923
53	0x40303787	2.7533891
54	0xc0c3bdf1	-6.116936
55	0xc10136aa	-8.075846
56	0xc0b53460	-5.6626434
57	0xc0de8006	-6.953128
58	0x3f720451	0.94537836
59	0xc09d8554	-4.9225254
60	0x40261ffc	2.5957022
61	0x409b85c1	4.8600774
62	0x4016ac0c	2.354251
63	0xc0983b66	-4.757251
64	0x40aa2ef6	5.3182325
65	0x4004d49e	2.0754771
66	0xc080279d	-4.0048356
67	0xc0827bb5	-4.077601
68	0xc0757b2e	-3.8356433
69	0x4085b272	4.178033
70	0xbfc11b4e	-1.5086458
71	0xc0e0120f	-7.0022044
72	0x3fb5f940	1.421669
73	0xc0afee5c	-5.4978466
74	0x406459f0	3.5679893
75	0x3f7f5db4	0.99752355
76	0xc08cb0f3	-4.3966002
77	0x3fca4fcb	1.5805601
78	0xc0d4b2ed	-6.6468415
79	0x40a85d40	5.261383
80	0xc0b1d022	-5.556657
81	0xc0a1eb6e	-5.059989
82	0xc04a0ac8	-3.156908
83	0xc04ba90d	-3.182193
84	0x407d9aa0	3.9625626
85	0xc10e8c0b	-8.90919
86	0xc066cd93	-3.6062973
87	0xc074627c	-3.818511
88	0x4027d1f7	2.6221902
89	0x40ca78e5	6.3272576
90	0xc0f3939b	-7.6117682
91	0xc0a26982	-5.0753794
92	0xc0fe3244	-7.943636
93	0x408497de	4.1435385
94	0xbfdc8db4	-1.7230744
95	0x40fc2e0f	7.8806224
96	0x40b4ff22	5.656144
97	0x40c91f58	6.285076
98	0xbf14b277	-0.58084816
99	0xc0e29696	-7.080882
100	0xbf5e575e	-0.8685206
101	0x3f9dd972	1.2331984
102	0xbe8a9abe	-0.27071184
103	0x3d770f26	0.06031718
104	0x3fbde381	1.4835054
105	0x4063d6d9	3.5599883
106	0xbe7a5171	-0.2444513
107	0xc02a6a91	-2.6627543
108	0x3f095d28	0.5365777
109	0xbeb12d61	-0.34604934
110	0x3fa80e3c	1.3129344
111	0x3f11d23f	0.56961435
112	0x41d41272	26.509007
113	0x3fbdc842	1.4826739
114	0xc0117237	-2.2725961
115	0x40758ba9	3.8366492
116	0xbfc8f816	-1.570071
117	0xbf910c9f	-1.1331977
118	0xbf3b7939	-0.73231846
119	0x3f315062	0.6926328
120	0xc191e5c7	-18.237196
121	0x3f23533d	0.63798887
122	0x3fa81907	1.3132638
123	0x40054202	2.0821538
124	0xc0b27879	-5.577206
125	0xc2b2967a	-89.2939
126	0xc11193b8	-9.098564
127	0xbfc89617	-1.5670804
128	0x4013fb6f	2.3122213
129	0x41a9a1f6	21.204082
130	0xc03b0fb6	-2.922834
131	0xbe3e94c6	-0.1861144
132	0x40ff911e	7.9864645
133	0xc02742c7	-2.6134508
134	0xbe014070	-0.12622237
135	0x3fb95118	1.4477873
136	0xc099bb0d	-4.8040833
137	0x3f6164cd	0.88044435
138	0xbef155ac	-0.47135675
139	0x40fc82bf	7.89096
140	0xc157e6dd	-13.493863
141	0x404ab53c	3.1673117
142	0xc2b562d1	-90.693
143	0xc047b876	-3.1206336
144	0xc0ba7c34	-5.8276615
145	0xbf1e3939	-0.61806065
146	0xbf1e690a	-0.61879027
147	0x3f18a9f5	0.59634334
148	0xbe098777	-0.13430582
149	0xc0d5b12e	-6.6778784
150	0x401bf829	2.4370215
151	0x3eac655e	0.33671087
152	0xbf893f12	-1.0722373
153	0x3f418249	0.75589424
154	0xbf5cf86a	-0.8631655
155	0xbe08a33f	-0.13343523
156	0x3e777564	0.24165875
157	0xbe0a11f1	-0.13483407
158	0x3f492d6e	0.78584945
159	0x3d9604c5	0.073251285
160	0xbf2dc0e2	-0.6787244
161	0x3fc48a91	1.5354787
162	0xbd184edd	-0.037184585
163	0x3f31d277	0.6946177
164	0x3f8eba13	1.1150535
165	0xbf3688c4	-0.7130244
166	0xbe397b7d	-0.18113513
167	0x3ff7d108	1.9360666
168	0x405a1eb5	3.4081242
169	0xbff604d6	-1.9220226
170	0x3d9232b4	0.07138577
171	0xbe1ae312	-0.15125683
172	0xbff95a49	-1.9480678
173	0xbfb90ca8	-1.4456987
174	0xbde44cfe	-0.111474976
175	0x3f079bcd	0.5297211
176	0xbef7301b	-0.4827889
177	0x3c082322	0.008309158
178	0xc07cc243	-3.9493568
179	0xbe958a75	-0.29207197
180	0x3d2032c6	0.03911092
181	0x3fff2829	1.9934131
182	0xbf0063aa	-0.50152075
183	0xbedd7e4c	-0.4326042
184	0x3f271726	0.65269697
185	0x3c3e9398	0.011631869
186	0xbda2c1b4	-0.07947102
187	0x3fe38ac1	1.7776719
188	0xc0a515c7	-5.1589084
189	0xbe8f11a4	-0.27943146
190	0xbc5440d8	-0.012954913
191	0xbfa1ced8	-1.2641249
192	0x3d9cc0a4	0.07653931
193	0xbe33f209	-0.17572798
194	0xbdc490fd	-0.09597967
195	0xbfdf794f	-1.7458895
196	0xc084ecc0	-4.1539
197	0x3eb712d2	0.35756546
198	0x3cfe9a49	0.031079428
199	0x3e4b603b	0.19860928
200	0xbda6c0e0	-0.08142257
201	0xbf8a13f2	-1.0787337
202	0xbf34fe3f	-0.7070045
203	0xbd44a3d1	-0.04800779
204	0x3f5b1774	0.8558266
205	0x3db15b01	0.08659936
206	0x3e82102f	0.25402972
207	0x4039fc8d	2.9060395
208	0x3e3dc61f	0.18532608
209	0xb7da5824	-2.6028669e-05
210	0xbfa4d9b6	-1.287894
211	0x408b7a20	4.358658
212	0xbff8b0c9	-1.942895
213	0x3fd51bbb	1.6649088
214	0x3e929436	0.286287
215	0xbf81b711	-1.0133992
216	0x3e32d8e0	0.17465544
217	0x3fb71a6f	1.4304942
218	0x3f53c999	0.8272949
219	0x40700159	3.7500823
220	0x3e203d2c	0.15648335
221	0xbfad3e22	-1.3534586
222	0xc01b100c	-2.4228544
223	0x3eddbfb4	0.4331032
224	0x402e4afb	2.7233264
225	0xbed4cf83	-0.4156457
226	0x3faf8f3c	1.3715587
227	0xc05ab778	-3.417448
228	0xbee8dc4d	-0.45480576
229	0x3e2312b2	0.159251
230	0xbcb0d248	-0.021584645
231	0x404c5ef5	3.1932957
232	0xbe8513ec	-0.25991762
233	0x3f09e9b4	0.5387223
234	0x3e4c2c9b	0.1993889
235	0x3d9e6360	0.07733798
236	0xbe2e387e	-0.17013738
237	0xbdb6447a	-0.088997796
238	0x3ffaa185	1.9580542
239	0x3cb24b96	0.021764558
240	0xbc8001db	-0.015625885
241	0xc03595d1	-2.837269
242	0xbc430627	-0.011903322
243	0x3f5b5afb	0.856857
244	0x3fa18cba	1.2621071
245	0x40b55c3c	5.667509
246	0xbecb1551	-0.396647
247	0xbf3f18e6	-0.74647367
248	0x3dc61997	0.096728496
249	0x3efa50fd	0.48889914
250	0xbd3ce903	-0.046120655
251	0xbde5df8c	-0.11224279
252	0xc015716d	-2.335048
253	0x3f179174	0.5920632
254	0xbe3aa88a	-0.18228355
255	0xbeff3b13	-0.49849758

encoder_dp.emb.weight f4 [23, 50]
0	0x4078b47b	3.8860157
1	0xc08ae421	-4.340348
2	0xc0061590	-2.095066
3	0x402f62c4	2.7404032
4	0xc0c283a6	-6.0785704
5	0xc10290be	-8.160337
6	0xc0b6058e	-5.688178
7	0xc0dc0f0e	-6.8768377
8	0x3f84b977	1.0369099
9	0xc09ca0f0	-4.8946457
10	0x40267b92	2.6012921
11	0x409a139d	4.814894
12	0x40169238	2.3526745
13	0xc095b880	-4.678772
14	0x40aa4b1f	5.32167
15	0x3fff532b	1.9947256
16	0xc080bd05	-4.0230737
17	0xc08400e0	-4.125107
18	0xc073c6c9	-3.809008
19	0x4086374d	4.1942506
20	0xbfc5629b	-1.5420717
21	0xc0df8c0b	-6.985845
22	0x3fb451c2	1.408745
23	0xc0b06c79	-5.5132413
24	0x40656bb0	3.5846977
25	0x3f84ea8c	1.0384078
26	0xc08c653a	-4.3873568
27	0x3fbdb905	1.4822088
28	0xc0d5dbf9	-6.683102
29	0x40a947b3	5.2900023
30	0xc0b2502b	-5.572286
31	0xc0a10440	-5.031769
32	0xc04a206e	-3.1582294
33	0xc04c76b3	-3.1947448
34	0x407f4207	3.988405
35	0xc110fbca	-9.061472
36	0xc068ace2	-3.635552
37	0xc07122aa	-3.7677407
38	0x402883a7	2.6330354
39	0x40cefb19	6.4681516
40	0xc0f12d0b	-7.5367484
41	0xc0a0bc96	-5.0230207
42	0xc0ff02d7	-7.9690967
43	0x4084d977	4.151546
44	0xbfddbb3a	-1.7322762
45	0x41001439	8.004937
46	0x40b3c475	5.6177316
47	0x40c8bf6e	6.273368
48	0xbf1d8044	-0.6152384
49	0xc0e51d0c	-7.1597958
50	0x4077baa3	3.8707664
51	0xc08d2666	-4.4109373
52	0xc0071595	-2.1106923
53	0x40303787	2.7533891
54	0xc0c3bdf1	-6.116936
55	0xc10136aa	-8.075846
56	0xc0b53460	-5.6626434
57	0xc0de8006	-6.953128
58	0x3f720451	0.94537836
59	0xc09d8554	-4.9225254
60	0x40261ffc	2.5957022
61	0x409b85c1	4.8600774
62	0x4016ac0c	2.354251
63	0xc0983b66	-4.757251
64	0x40aa2ef6	5.3182325
65	0x4004d49e	2.0754771
66	0xc080279d	-4.0048356
67	0xc0827bb5	-4.077601
68	0xc0757b2e	-3.8356433
69	0x4085b272	4.178033
70	0xbfc11b4e	-1.5086458
71	0xc0e0120f	-7.0022044
72	0x3fb5f940	1.421669
73	0xc0afee5c	-5.4978466
74	0x406459f0	3.5679893
75	0x3f7f5db4	0.99752355
76	0xc08cb0f3	-4.3966002
77	0x3fca4fcb	1.5805601
78	0xc0d4b2ed	-6.6468415
79	0x40a85d40	5.261383
80	0xc0b1d022	-5.556657
81	0xc0a1eb6e	-5.059989
82	0xc04a0ac8	-3.156908
83	0xc04ba90d	-3.182193
84	0x407d9aa0	3.9625626
85	0xc10e8c0b	-8.90919
86	0xc066cd93	-3.6062973
87	0xc074627c	-3.818511
88	0x4027d1f7	2.6221902
89	0x40ca78e5	6.3272576
90	0xc0f3939b	-7.6117682
91	0xc0a26982	-5.0753794
92	0xc0fe3244	-7.943636
93	0x408497de	4.1435385
94	0xbfdc8db4	-1.7230744
95	0x40fc2e0f	7.8806224
96	0x40b4ff22	5.656144
97	0x40c91f58	6.285076
98	0xbf14b277	-0.58084816
99	0xc0e29696	-7.080882
100	0xbf5e575e	-0.8685206
101	0x3f9dd972	1.2331984
102	0xbe8a9abe	-0.27071184
103	0x3d770f26	0.06031718
104	0x3fbde381	1.4835054
105	0x4063d6d9	3.5599883
106	0xbe7a5171	-0.2444513
107	0xc02a6a91	-2.6627543
108	0x3f095d28	0.5365777
109	0xbeb12d61	-0.34604934
110	0x3fa80e3c	1.3129344
111	0x3f11d23f	0.56961435
112	0x41d41272	26.509007
113	0x3fbdc842	1.4826739
114	0xc0117237	-2.2725961
115	0x40758ba9	3.8366492
116	0xbfc8f816	-1.570071
117	0xbf910c9f	-1.1331977
118	0xbf3b7939	-0.73231846
119	0x3f315062	0.6926328
120	0xc191e5c7	-18.237196
121	0x3f23533d	0.63798887
122	0x3fa81907	1.3132638
123	0x40054202	2.0821538
124	0xc0b27879	-5.577206
125	0xc2b2967a	-89.2939
126	0xc11193b8	-9.098564
127	0xbfc89617	-1.5670804
128	0x4013fb6f	2.3122213
129	0x41a9a1f6	21.204082
130	0xc03b0fb6	-2.922834
131	0xbe3e94c6	-0.1861144
132	0x40ff911e	7.9864645
133	0xc02742c7	-2.6134508
134	0xbe014070	-0.12622237
135	0x3fb95118	1.4477873
136	0xc099bb0d	-4.8040833
137	0x3f6164cd	0.88044435
138	0xbef155ac	-0.47135675
139	0x40fc82bf	7.89096
140	0xc157e6dd	-13.493863
141	0x404ab53c	3.1673117
142	0xc2b562d1	-90.693
143	0xc047b876	-3.1206336
144	0xc0ba7c34	-5.8276615
145	0xbf1e3939	-0.61806065
146	0xbf1e690a	-0.61879027
147	0x3f18a9f5	0.59634334
148	0xbe098777	-0.13430582
149	0xc0d5b12e	-6.6778784
150	0x401bf829	2.4370215
151	0x3eac655e	0.33671087
152	0xbf893f12	-1.0722373
153	0x3f418249	0.75589424
154	0xbf5cf86a	-0.8631655
155	0xbe08a33f	-0.13343523
156	0x3e777564	0.24165875
157	0xbe0a11f1	-0.13483407
158	0x3f492d6e	0.78584945
159	0x3d9604c5	0.073251285
160	0xbf2dc0e2	-0.6787244
161	0x3fc48a91	1.5354787
162	0xbd184edd	-0.037184585
163	0x3f31d277	0.6946177
164	0x3f8eba13	1.1150535
165	0xbf3688c4	-0.7130244
166	0xbe397b7d	-0.18113513
167	0x3ff7d108	1.9360666
168	0x405a1eb5	3.4081242
169	0xbff604d6	-1.9220226
170	0x3d9232b4	0.07138577
171	0xbe1ae312	-0.15125683
172	0xbff95a49	-1.9480678
173	0xbfb90ca8	-1.4456987
174	0xbde44cfe	-0.111474976
175	0x3f079bcd	0.5297211
176	0xbef7301b	-0.4827889
177	0x3c082322	0.008309158
178	0xc07cc243	-3.9493568
179	0xbe958a75	-0.29207197
180	0x3d2032c6	0.03911092
181	0x3fff2829	1.9934131
182	0xbf0063aa	-0.50152075
183	0xbedd7e4c	-0.4326042
184	0x3f271726	0.65269697
185	0x3c3e9398	0.011631869
186	0xbda2c1b4	-0.07947102
187	0x3fe38ac1	1.7776719
188	0xc0a515c7	-5.1589084
189	0xbe8f11a4	-0.27943146
190	0xbc5440d8	-0.012954913
191	0xbfa1ced8	-1.2641249
192	0x3d9cc0a4	0.07653931
193	0xbe33f209	-0.17572798
194	0xbdc490fd	-0.09597967
195	0xbfdf794f	-1.7458895
196	0xc084ecc0	-4.1539
197	0x3eb712d2	0.35756546
198	0x3cfe9a49	0.031079428
199	0x3e4b603b	0.19860928
200	0xbda6c0e0	-0.08142257
201	0xbf8a13f2	-1.0787337
202	0xbf34fe3f	-0.7070045
203	0xbd44a3d1	-0.04800779
204	0x3f5b1774	0.8558266
205	0x3db15b01	0.08659936
206	0x3e82102f	0.25402972
207	0x4039fc8d	2.9060395
208	0x3e3dc61f	0.18532608
209	0xb7da5824	-2.6028669e-05
210	0xbfa4d9b6	-1.287894
211	0x408b7a20	4.358658
212	0xbff8b0c9	-1.942895
213	0x3fd51bbb	1.6649088
214	0x3e929436	0.286287
215	0xbf81b711	-1.0133992
216	0x3e32d8e0	0.17465544
217	0x3fb71a6f	1.4304942
218	0x3f53c999	0.8272949
219	0x40700159	3.7500823
220	0x3e203d2c	0.15648335
221	0xbfad3e22	-1.3534586
222	0xc01b100c	-2.4228544
223	0x3eddbfb4	0.4331032
224	0x402e4afb	2.7233264
225	0xbed4cf83	-0.4156457
226	0x3faf8f3c	1.3715587
227	0xc05ab778	-3.417448
228	0xbee8dc4d	-0.45480576
229	0x3e2312b2	0.159251
230	0xbcb0d248	-0.021584645
231	0x404c5ef5	3.1932957
232	0xbe8513ec	-0.25991762
233	0x3f09e9b4	0.5387223
234	0x3e4c2c9b	0.1993889
235	0x3d9e6360	0.07733798
236	0xbe2e387e	-0.17013738
237	0xbdb6447a	-0.088997796
238	0x3ffaa185	1.9580542
239	0x3cb24b96	0.021764558
240	0xbc8001db	-0.015625885
241	0xc03595d1	-2.837269
242	0xbc430627	-0.011903322
243	0x3f5b5afb	0.856857
244	0x3fa18cba	1.2621071
245	0x40b55c3c	5.667509
246	0xbecb1551	-0.396647
247	0xbf3f18e6	-0.74647367
248	0x3dc61997	0.096728496
249	0x3efa50fd	0.48889914
250	0xbd3ce903	-0.046120655
251	0xbde5df8c	-0.11224279
252	0xc015716d	-2.335048
253	0x3f179174	0.5920632
254	0xbe3aa88a	-0.18228355
255	0xbeff3b13	-0.49849758

rnns.0.weight_hh_l0_raw f4 [200, 50]
0	0xc02725b2	-2.6116757
1	0xbfd251f1	-1.6431257
2	0x3ef9cccc	0.4878906
3	0x4000b455	2.0110066
4	0x3f8c274c	1.0949492
5	0x40386844	2.8813639
6	0x3fb35f39	1.4013435
7	0x3fb204d9	1.3907729
8	0x3cc52080	0.024063349
9	0x3f958785	1.1681982
10	0xbff92379	-1.946395
11	0xbdb3653c	-0.08759543
12	0xbfd94d3d	-1.6976696
13	0x3d463a42	0.048395403
14	0x3ff05d80	1.8778534
15	0xc05f2c78	-3.4870892
16	0x3fbaac55	1.4583842
17	0xbf81247b	-1.0089258
18	0x3ea353a1	0.3189974
19	0x3f94206f	1.1572398
20	0x3f908e83	1.1293491
21	0xbfacfa01	-1.3513795
22	0x3ea081e8	0.3134911
23	0x3edf1c71	0.43576387
24	0x3fe73442	1.8062823
25	0xbf098f31	-0.5373412
26	0x3faaa142	1.3330462
27	0x3fabfc24	1.3436322
28	0x402b7e0c	2.6795683
29	0x3e734fbf	0.2376089
30	0xbf7c4ad8	-0.985517
31	0x40016c33	2.022229
32	0xbe9a00b2	-0.30078655
33	0x40017dd5	2.0233052
34	0x400355e8	2.0521183
35	0x3fb990cc	1.4497313
36	0x3f6cf08d	0.9255455
37	0xc09f7d17	-4.9840198
38	0x3fec3903	1.8454899
39	0xc0405708	-3.005312
40	0xbf0640e1	-0.5244275
41	0xbf8fc829	-1.1232959
42	0x3ea406a6	0.32036322
43	0x3f4b7869	0.79480606
44	0x3ff22797	1.8918332
45	0x3f964dca	1.1742489
46	0xbf0fd2bc	-0.5618093
47	0x3fcbc033	1.591803
48	0xbe2bb7ad	-0.16769286
49	0xbf7a649c	-0.9780977
50	0xc0333776	-2.80026
51	0x3f9061b5	1.1279818
52	0x3fa67abe	1.3006208
53	0xbe97832c	-0.29592264
54	0xc0851072	-4.1582575
55	0x4028d8b2	2.638226
56	0x3fe44c21	1.7835733
57	0x40bcebda	5.9037905
58	0xbf95c5fb	-1.1701044
59	0xc07221a4	-3.7833033
60	0x3f33daf9	0.70256
61	0x3eec0618	0.460984
62	0xbf987142	-1.1909564
63	0x3f328d28	0.6974664
64	0x3fe80ff1	1.8129865
65	0xc042e311	-3.045109
66	0x3f1b1140	0.60573196
67	0x3f6333d6	0.8875097
68	0xc0044332	-2.0666013
69	0x3fc65826	1.5495651
70	0xbea342af	-0.31886813
71	0xc0140df8	-2.3133526
72	0xbf284f20	-0.65745735
73	0xc09c44a5	-4.8833795
74	0x402ae1c5	2.6700299
75	0xc02b856e	-2.680019
76	0x4078b49f	3.8860242
77	0xc00bcbc9	-2.184313
78	0xbfdf8399	-1.7462035
79	0x400f89a2	2.2427754
80	0xbea0fbcf	-0.31442115
81	0x40cf369f	6.4754176
82	0x3f2a73b3	0.66582793
83	0x3ed39978	0.41328025
84	0x3fbf8f19	1.4965545
85	0x4081bc10	4.054207
86	0x3f212db0	0.6296034
87	0xbf33d9c6	-0.7025417
88	0xc004df8e	-2.0761447
89	0x3f34b8a8	0.70594263
90	0xc0b09595	-5.5182595
91	0xc0162e3f	-2.3465726
92	0xbf022e50	-0.5085192
93	0xc049d2cb	-3.1534908
94	0xbf8bc151	-1.091837
95	0x40b04302	5.5081797
96	0xc033fb82	-2.8122258
97	0x3e8c493b	0.2739962
98	0x3ec927ea	0.39288265
99	0xc009d27a	-2.1534715
100	0x3ef15bb8	0.47140288
101	0x3ef81b34	0.48458254
102	0xbfc51778	-1.5397787
103	0xbfe24383	-1.7676853
104	0xbf818fad	-1.0121971
105	0x3e24b8db	0.16086142
106	0xc0217256	-2.5226035
107	0x3f71b355	0.94414264
108	0xbfba9267	-1.4575928
109	0xbf6c528a	-0.92313445
110	0x3f431d65	0.7621673
111	0x3f15288e	0.58265007
112	0x3c4115d8	0.011784993
113	0x40015119	2.0205748
114	0xbf45e2e4	-0.7729933
115	0x3fd5e22d	1.6709648
116	0x3f3b49fb	0.7315976
117	0xbf07fc9e	-0.5311984
118	0x3e8353d4	0.25649893
119	0xbedf68b7	-0.4363458
120	0xbd99fc12	-0.07518782
121	0x3e5a31e2	0.21308091
122	0x3df375c6	0.11887698
123	0xbfeb0112	-1.8359702
124	0xbf984306	-1.1895454
125	0xbeddf127	-0.43348047
126	0xbf031989	-0.5121084
127	0xbf237946	-0.63856924
128	0xbf11bb47	-0.5692639
129	0x3da9c3c0	0.082892895
130	0xbe14fd89	-0.14549841
131	0xbec01b4e	-0.37520832
132	0x3f9a7aed	1.2068764
133	0xbf91749d	-1.1363713
134	0x3d906bea	0.07051833
135	0xbe864a42	-0.2622853
136	0xbedbcaaa	-0.42928058
137	0x3f136f24	0.5759146
138	0xbed4b580	-0.41544724
139	0xbe699e20	-0.22814226
140	0x3f37504d	0.71606904
141	0xbe24424b	-0.16040914
142	0xbd9f55da	-0.07780047
143	0xbf895fbe	-1.0732343
144	0xbf9af811	-1.2106954
145	0x3d68a87e	0.05680131
146	0xbb8203cc	-0.003967738
147	0xbea2410f	-0.3169026
148	0xbf88e770	-1.0695629
149	0xbe457357	-0.1928228
150	0x3ed10a22	0.40828043
151	0x3e39f8a0	0.18161249
152	0x3e235245	0.15949352
153	0x3f2cef7c	0.67552924
154	0x3ff4e904	1.9133611
155	0xc023d149	-2.5596488
156	0xbfa73910	-1.3064289
157	0x3e560c1c	0.20903057
158	0xbffa6c31	-1.9564267
159	0xbe2a0ca5	-0.16606386
160	0xbe1ba14b	-0.15198247
161	0x3f58ce9b	0.84690255
162	0x3f95d066	1.1704223
163	0xbfcf71ca	-1.6206601
164	0x3ce621e8	0.02809234
165	0xbf0d8408	-0.5527959
166	0x3f600afd	0.87516767
167	0xbd24ca9e	-0.040232293
168	0x3da87337	0.082251005
169	0xbe40428a	-0.18775383
170	0xbd5ffd49	-0.05468491
171	0x3ed7345d	0.42032138
172	0xbe9257c7	-0.28582594
173	0xbf860a2a	-1.0471852
174	0xc0102ef8	-2.2528667
175	0x3d49bcaf	0.04925221
176	0xbeb1e1f5	-0.34742704
177	0x3e79ed49	0.24406923
178	0x3f2b31f6	0.6687311
179	0xbf04ea73	-0.5192024
180	0xbd69ffe4	-0.057128802
181	0xc00a10e4	-2.157281
182	0x3dd33fe3	0.1031492
183	0xbfcc50ee	-1.5962198
184	0xbec4259a	-0.38309938
185	0xbfda85eb	-1.7072119
186	0x3f1ab8f5	0.6043847
187	0xbfaa8f21	-1.332493
188	0x3ecefdd2	0.40428025
189	0x3e80befe	0.25145715
190	0x3de35350	0.11099875
191	0xbcd58a57	-0.026066942
192	0x3d3a95f6	0.04555317
193	0x3e61c20b	0.22046678
194	0xbf2c3214	-0.67263913
195	0xbf8c788f	-1.0974292
196	0x3f9e0cf3	1.2347702
197	0xbf67be7e	-0.90525043
198	0x3f65b41e	0.8972796
199	0xbe48301e	-0.19549605
200	0xbff6d555	-1.9283854
201	0xbf138fb2	-0.57641137
202	0xbeaaf565	-0.33390346
203	0xbfc895bb	-1.5670694
204	0xbfbc5268	-1.4712648
205	0x3fbcc2b0	1.4746914
206	0xbe941d59	-0.2892864
207	0xbcda5cac	-0.026655518
208	0xbf204bd3	-0.626157
209	0x3eed6ab2	0.46370465
210	0xbf2288ab	-0.6348979
211	0x3f5b1fc5	0.8559535
212	0xbf6a21b2	-0.91457665
213	0x3f179f20	0.5922718
214	0x3f390924	0.7227957
215	0x3fd138e8	1.6345491
216	0xbf6a94d3	-0.9163334
217	0xc00e4ffa	-2.2236314
218	0xbff44279	-1.9082786
219	0x3f7228ce	0.94593513
220	0x3f2f78fa	0.6854397
221	0xbf871b9d	-1.0555302
222	0x3f595b42	0.84904873
223	0x3ead8bed	0.33895817
224	0x3ffb8c0c	1.9652114
225	0xbf1c440e	-0.61041343
226	0x3fb6ce08	1.4281626
227	0x3e8b1be2	0.2716971
228	0xbfe3a935	-1.7786013
229	0x3f782b38	0.96940947
230	0xbf39a3de	-0.72515666
231	0xbfd14326	-1.6348617
232	0x3dcfb799	0.1014244
233	0x3d2c42fc	0.04205607
234	0x3f7bf7b0	0.98424816
235	0x3f553f5a	0.8329979
236	0x3ea3e0a7	0.32007334
237	0xbfb2f182	-1.3979952
238	0x3f8a2315	1.0791956
239	0xbf62f78d	-0.8865898
240	0x3fc388e6	1.5276153
241	0xbf9b9329	-1.2154285
242	0x3f127852	0.57214844
243	0xbeab447c	-0.33450687
244	0x401801f1	2.3751185
245	0xbf7193df	-0.9436626
246	0x3f545a0e	0.8294991
247	0x3f38c1c9	0.7217069
248	0x4003e821	2.061043
249	0xbf8b2860	-1.0871696
250	0xbe84e071	-0.25952485
251	0x40179776	2.3686194
252	0xbfb2fb3d	-1.3982922
253	0x40489daa	3.134623
254	0xbe9e2274	-0.3088566
255	0x3e9c4bc8	0.30526567

rnns.0.module.weight_ih_l0 f4 [200, 50]
0	0xbce75ff6	-0.028244
1	0xbc55a62a	-0.013040105
2	0x3cc5d7dd	0.024150783
3	0xbdfc94bb	-0.123330556
4	0x3a4910eb	0.00076700625
5	0x3d06f948	0.032952577
6	0x3da0e3bf	0.07855939
7	0xbb54ba53	-0.003245969
8	0x3d50275a	0.05081878
9	0x3cfd4628	0.030917242
10	0x3d5062a3	0.050875317
11	0xbd16f7ba	-0.036857344
12	0xbcacf133	-0.021111107
13	0xbc9e479c	-0.019321255
14	0xbc3ebcb8	-0.011641674
15	0xbd86a38b	-0.06574162
16	0x3db45b11	0.08806432
17	0x3c17d08c	0.00926603
18	0xbd0ba9d2	-0.0340975
19	0x3c8008dd	0.015629226
20	0x3ebff510	0.37491655
21	0x3c3ff8f2	0.011717068
22	0xbc1debfb	-0.009638782
23	0xbd21814d	-0.03942995
24	0x3c42b372	0.011883603
25	0xb9c56a23	-0.00037653846
26	0xbc495a62	-0.012289615
27	0x3d8cc057	0.068726234
28	0x3d167c71	0.03673977
29	0x3d9c6237	0.076359205
30	0x3dc521af	0.09625565
31	0xbc808622	-0.01568896
32	0xbcd03025	-0.025413582
33	0x3c935031	0.017982574
34	0x3c251f51	0.010078267
35	0xbd971dd5	-0.07378737
36	0xbddf07ba	-0.108901456
37	0xbc78ba04	-0.015181068
38	0x3cb4f0a8	0.02208741
39	0xbe32f0b0	-0.17474627
40	0x3e6ad9d5	0.22934659
41	0xbcd68049	-0.026184218
42	0x3cb44d36	0.022009473
43	0x3d47023e	0.048586123
44	0xbb528198	-0.00321207
45	0x3c80b6a1	0.015712084
46	0x3bfe40f0	0.007759206
47	0xbc355709	-0.011068114
48	0x3e3762ef	0.17908834
49	0x3d33d9ae	0.043908767
50	0xbda8ee61	-0.08248592
51	0xbc96e652	-0.018420372
52	0x3d5777db	0.052604537
53	0xbe570310	-0.20997262
54	0x3d35f4af	0.0444228
55	0xbd86ea08	-0.06587607
56	0x3d5a17fa	0.053245522
57	0xbcf03ecf	-0.029326824
58	0x3e0b1618	0.13582647
59	0xbccfa9ce	-0.025349524
60	0x3d990250	0.07471144
61	0xbd72b466	-0.059254073
62	0xbc58f07a	-0.013240928
63	0xbcae022b	-0.021241268
64	0x3d5e6117	0.05429181
65	0x3c004e42	0.007831158
66	0xbddf5780	-0.10905361
67	0xbbba5c2e	-0.005687258
68	0xbd2ee25d	-0.042696346
69	0xbd68b7eb	-0.056816023
70	0xba9d3c44	-0.001199611
71	0x3bd8ca9f	0.006615951
72	0xbc0a3dee	-0.008437617
73	0xbce9733b	-0.028497329
74	0x3c5427ad	0.012948913
75	0x3c30cdea	0.010791281
76	0x3cf39869	0.02973576
77	0x3e65dfcc	0.22448653
78	0xbc69b10c	-0.014263403
79	0xbdb96724	-0.09052876
80	0xbd82480e	-0.063613996
81	0xbc8394d3	-0.016062176
82	0x3d515bb7	0.051112857
83	0x3ce4b780	0.02791953
84	0xbb0feb8b	-0.0021960463
85	0x3abceb02	0.00144133
86	0x3e58b5e4	0.21163136
87	0x3cdb9e05	0.026808748
88	0xbdba479f	-0.09095692
89	0xbe3570df	-0.17718838
90	0x3e655a30	0.22397685
91	0xbc349dcd	-0.011023951
92	0x3ead33dd	0.3382863
93	0x3bef4198	0.0073015206
94	0x3c99d714	0.018779315
95	0xbd24a2b6	-0.040194236
96	0x3cf8d760	0.030376136
97	0x3c91fa79	0.01781963
98	0xbc1e2dee	-0.009654505
99	0xbd723a0a	-0.05913738
100	0xbcc33232	-0.023827646
101	0x3c47a25e	0.012184707
102	0xbc96a872	-0.018390868
103	0x3ddacb30	0.10683286
104	0xbbf8d860	-0.0075941533
105	0x3bd2d968	0.0064346083
106	0x3cb444d6	0.02200548
107	0xbbce9dd5	-0.006305436
108	0x3d0cfd66	0.034421347
109	0xbd0328d4	-0.03202136
110	0xbdc939a1	-0.09825445
111	0x3bc3f18e	0.0059797233
112	0xbb2318b9	-0.0024886562
113	0x3cad7614	0.021174468
114	0xbd08aa51	-0.03336555
115	0x3b341626	0.0027479022
116	0xbcc64b36	-0.024205785
117	0x3c81a96b	0.015827855
118	0xbc109313	-0.008824128
119	0xbbb56cfb	-0.005536673
120	0x3ce9df51	0.028548868
121	0xbca02d76	-0.019552927
122	0xbc13dd6c	-0.009024959
123	0xbdc4aa36	-0.09602778
124	0xbc054768	-0.0081347
125	0x3d1232dc	0.035693035
126	0x3d1a544b	0.037678044
127	0xbd49352f	-0.049122985
128	0x3aca8118	0.001544985
129	0xbde05dcd	-0.10955391
130	0xbdd04288	-0.1016894
131	0x3c09ddcc	0.008414697
132	0xbd53c71f	-0.05170357
133	0xbc0c58d0	-0.008566096
134	0x3d231276	0.039812528
135	0xbd87bc4d	-0.066277124
136	0x3db8686b	0.09004291
137	0x3c8a07cc	0.016849421
138	0xbc629c0f	-0.013831153
139	0xbdccf596	-0.10007779
140	0xbd40b721	-0.047049645
141	0xbb18d9b1	-0.0023323114
142	0x3ca88030	0.020568937
143	0x3d301e7b	0.04299782
144	0xbccbf5df	-0.024897514
145	0xbba0ec37	-0.0049109715
146	0x3b8168c2	0.0039492557
147	0xbca293b0	-0.019845814
148	0x3e3ab24c	0.18232077
149	0xbbfa1bb6	-0.007632698
150	0x3d41df8d	0.047332335
151	0xbd7b16b3	-0.061300945
152	0x3d9c4e7d	0.07632158
153	0xbee46ca4	-0.44614136
154	0x3b5fe1f1	0.0034161771
155	0xbd002fc9	-0.03129557
156	0x3d10b887	0.03533223
157	0xbd12b1ae	-0.03581398
158	0xbd770c8e	-0.060314707
159	0xbdac13dd	-0.08402226
160	0xbde6c079	-0.1126718
161	0xbd930123	-0.07177951
162	0x3c9b8d5d	0.018988306
163	0xbc1d1db7	-0.009589604
164	0x3d5cc3a5	0.05389752
165	0x3d1033a3	0.035205495
166	0x3f16b586	0.5887073
167	0xb9e93378	-0.0004447957
168	0xbdb86d4f	-0.09005224
169	0xbd318973	-0.043343972
170	0x3c8511ce	0.016243841
171	0x3cd2a93d	0.025715465
172	0x3c32ca65	0.010912512
173	0xbc9665e3	-0.01835913
174	0xbc6ae7ef	-0.014337524
175	0x3d5899a3	0.052880894
176	0xbd646128	-0.055756718
177	0x3d328dcd	0.043592263
178	0xbd12ac5d	-0.03580891
179	0xbd7b5c1e	-0.061367147
180	0x3e85f2d4	0.26161826
181	0xbcce0439	-0.025148498
182	0xbc2dd967	-0.010610915
183	0x3d6fee6c	0.058576986
184	0x3cc77164	0.024346061
185	0x3e33915e	0.17535922
186	0xbd990c4e	-0.0747305
187	0x3cd00b17	0.025395913
188	0x3d505f10	0.05087191
189	0x3c47a3bd	0.012185034
190	0x3df0ac43	0.11751606
191	0xbcd014ec	-0.025400601
192	0x3ea1f934	0.3163544
193	0x3d1ae172	0.037812658
194	0xbcf2b95b	-0.0296294
195	0xbc119bcb	-0.008887242
196	0xbb9925df	-0.004673704
197	0x3cd7e5a0	0.02635461
198	0x3d1ae6ed	0.037817884
199	0x3dbe250c	0.0928441
200	0xbccc6277	-0.024949295
201	0xbc058d45	-0.008151357
202	0xbce3ef8f	-0.027824191
203	0x3d24c108	0.04022315
204	0x38b86268	8.792133e-05
205	0x3d05ea7b	0.03269432
206	0x3d935e5f	0.07195734
207	0x3d469df9	0.0484905
208	0xbc86143e	-0.016367074
209	0xbcc3f9cd	-0.023922825
210	0x3b7c950d	0.003854099
211	0xbbcaf8dd	-0.0061942176
212	0xbc324b38	-0.010882191
213	0xbbbef8ae	-0.005827985
214	0x3ada4dad	0.0016655229
215	0xbd283143	-0.041062605
216	0x3e11a7b6	0.14224133
217	0x3bec1f6a	0.0072058933
218	0xbdd631cb	-0.10458716
219	0x3cb12d46	0.021628033
220	0x3e4564c7	0.19276725
221	0xbda69c99	-0.081353374
222	0xbc4f8fa2	-0.012668522
223	0xbd8958bf	-0.0670638
224	0x3c9a3d17	0.018827958
225	0x3d933c1c	0.07189199
226	0xbdc85934	-0.09782639
227	0x3e189df2	0.14904001
228	0x3bbd07c7	0.0057687494
229	0x3cc2e6ff	0.023791788
230	0x3de0244f	0.10944425
231	0xbd4c64d2	-0.049900837
232	0x3c8e472f	0.017367927
233	0x3b278379	0.0025560542
234	0xbbf3c1ba	-0.0074388655
235	0xbcaf9083	-0.021431213
236	0xbd12d64d	-0.035848904
237	0xbc1012c4	-0.008793537
238	0xbd0c4cc9	-0.034252916
239	0xbdf6611a	-0.120302394
240	0xbd29e04f	-0.041473683
241	0xbcce7e57	-0.025206728
242	0x3d4e6aa0	0.050394654
243	0xbc34f287	-0.011044151
244	0x3c88218c	0.016617559
245	0x3c7536b2	0.014966654
246	0x3b4aad16	0.0030925921
247	0xbd03e7ed	-0.032203604
248	0x3e292bbc	0.1652059
249	0x3cccf7d5	0.02502052
250	0x3c4835d3	0.012219864
251	0x3dfe454e	0.124155626
252	0x3d320382	0.043460377
253	0xbeba1ac3	-0.36348543
254	0x3bc1cec5	0.0059145414
255	0x3d756f0d	0.05992036

rnns.0.module.weight_hh_l0 f4 [200, 50]
0	0xc02725b2	-2.6116757
1	0xbfd251f1	-1.6431257
2	0x3ef9cccc	0.4878906
3	0x4000b455	2.0110066
4	0x3f8c274c	1.0949492
5	0x40386844	2.8813639
6	0x3fb35f39	1.4013435
7	0x3fb204d9	1.3907729
8	0x3cc52080	0.024063349
9	0x3f958785	1.1681982
10	0xbff92379	-1.946395
11	0xbdb3653c	-0.08759543
12	0xbfd94d3d	-1.6976696
13	0x3d463a42	0.048395403
14	0x3ff05d80	1.8778534
15	0xc05f2c78	-3.4870892
16	0x3fbaac55	1.4583842
17	0xbf81247b	-1.0089258
18	0x3ea353a1	0.3189974
19	0x3f94206f	1.1572398
20	0x3f908e83	1.1293491
21	0xbfacfa01	-1.3513795
22	0x3ea081e8	0.3134911
23	0x3edf1c71	0.43576387
24	0x3fe73442	1.8062823
25	0xbf098f31	-0.5373412
26	0x3faaa142	1.3330462
27	0x3fabfc24	1.3436322
28	0x402b7e0c	2.6795683
29	0x3e734fbf	0.2376089
30	0xbf7c4ad8	-0.985517
31	0x40016c33	2.022229
32	0xbe9a00b2	-0.30078655
33	0x40017dd5	2.0233052
34	0x400355e8	2.0521183
35	0x3fb990cc	1.4497313
36	0x3f6cf08d	0.9255455
37	0xc09f7d17	-4.9840198
38	0x3fec3903	1.8454899
39	0xc0405708	-3.005312
40	0xbf0640e1	-0.5244275
41	0xbf8fc829	-1.1232959
42	0x3ea406a6	0.32036322
43	0x3f4b7869	0.79480606
44	0x3ff22797	1.8918332
45	0x3f964dca	1.1742489
46	0xbf0fd2bc	-0.5618093
47	0x3fcbc033	1.591803
48	0xbe2bb7ad	-0.16769286
49	0xbf7a649c	-0.9780977
50	0xc0333776	-2.80026
51	0x3f9061b5	1.1279818
52	0x3fa67abe	1.3006208
53	0xbe97832c	-0.29592264
54	0xc0851072	-4.1582575
55	0x4028d8b2	2.638226
56	0x3fe44c21	1.7835733
57	0x40bcebda	5.9037905
58	0xbf95c5fb	-1.1701044
59	0xc07221a4	-3.7833033
60	0x3f33daf9	0.70256
61	0x3eec0618	0.460984
62	0xbf987142	-1.1909564
63	0x3f328d28	0.6974664
64	0x3fe80ff1	1.8129865
65	0xc042e311	-3.045109
66	0x3f1b1140	0.60573196
67	0x3f6333d6	0.8875097
68	0xc0044332	-2.0666013
69	0x3fc65826	1.5495651
70	0xbea342af	-0.31886813
71	0xc0140df8	-2.3133526
72	0xbf284f20	-0.65745735
73	0xc09c44a5	-4.8833795
74	0x402ae1c5	2.6700299
75	0xc02b856e	-2.680019
76	0x4078b49f	3.8860242
77	0xc00bcbc9	-2.184313
78	0xbfdf8399	-1.7462035
79	0x400f89a2	2.2427754
80	0xbea0fbcf	-0.31442115
81	0x40cf369f	6.4754176
82	0x3f2a73b3	0.66582793
83	0x3ed39978	0.41328025
84	0x3fbf8f19	1.4965545
85	0x4081bc10	4.054207
86	0x3f212db0	0.6296034
87	0xbf33d9c6	-0.7025417
88	0xc004df8e	-2.0761447
89	0x3f34b8a8	0.70594263
90	0xc0b09595	-5.5182595
91	0xc0162e3f	-2.3465726
92	0xbf022e50	-0.5085192
93	0xc049d2cb	-3.1534908
94	0xbf8bc151	-1.091837
95	0x40b04302	5.5081797
96	0xc033fb82	-2.8122258
97	0x3e8c493b	0.2739962
98	0x3ec927ea	0.39288265
99	0xc009d27a	-2.1534715
100	0x3ef15bb8	0.47140288
101	0x3ef81b34	0.48458254
102	0xbfc51778	-1.5397787
103	0xbfe24383	-1.7676853
104	0xbf818fad	-1.0121971
105	0x3e24b8db	0.16086142
106	0xc0217256	-2.5226035
107	0x3f71b355	0.94414264
108	0xbfba9267	-1.4575928
109	0xbf6c528a	-0.92313445
110	0x3f431d65	0.7621673
111	0x3f15288e	0.58265007
112	0x3c4115d8	0.011784993
113	0x40015119	2.0205748
114	0xbf45e2e4	-0.7729933
115	0x3fd5e22d	1.6709648
116	0x3f3b49fb	0.7315976
117	0xbf07fc9e	-0.5311984
118	0x3e8353d4	0.25649893
119	0xbedf68b7	-0.4363458
120	0xbd99fc12	-0.07518782
121	0x3e5a31e2	0.21308091
122	0x3df375c6	0.11887698
123	0xbfeb0112	-1.8359702
124	0xbf984306	-1.1895454
125	0xbeddf127	-0.43348047
126	0xbf031989	-0.5121084
127	0xbf237946	-0.63856924
128	0xbf11bb47	-0.5692639
129	0x3da9c3c0	0.082892895
130	0xbe14fd89	-0.14549841
131	0xbec01b4e	-0.37520832
132	0x3f9a7aed	1.2068764
133	0xbf91749d	-1.1363713
134	0x3d906bea	0.07051833
135	0xbe864a42	-0.2622853
136	0xbedbcaaa	-0.42928058
137	0x3f136f24	0.5759146
138	0xbed4b580	-0.41544724
139	0xbe699e20	-0.22814226
140	0x3f37504d	0.71606904
141	0xbe24424b	-0.16040914
142	0xbd9f55da	-0.07780047
143	0xbf895fbe	-1.0732343
144	0xbf9af811	-1.2106954
145	0x3d68a87e	0.05680131
146	0xbb8203cc	-0.003967738
147	0xbea2410f	-0.3169026
148	0xbf88e770	-1.0695629
149	0xbe457357	-0.1928228
150	0x3ed10a22	0.40828043
151	0x3e39f8a0	0.18161249
152	0x3e235245	0.15949352
153	0x3f2cef7c	0.67552924
154	0x3ff4e904	1.9133611
155	0xc023d149	-2.5596488
156	0xbfa73910	-1.3064289
157	0x3e560c1c	0.20903057
158	0xbffa6c31	-1.9564267
159	0xbe2a0ca5	-0.16606386
160	0xbe1ba14b	-0.15198247
161	0x3f58ce9b	0.84690255
162	0x3f95d066	1.1704223
163	0xbfcf71ca	-1.6206601
164	0x3ce621e8	0.02809234
165	0xbf0d8408	-0.5527959
166	0x3f600afd	0.87516767
167	0xbd24ca9e	-0.040232293
168	0x3da87337	0.082251005
169	0xbe40428a	-0.18775383
170	0xbd5ffd49	-0.05468491
171	0x3ed7345d	0.42032138
172	0xbe9257c7	-0.28582594
173	0xbf860a2a	-1.0471852
174	0xc0102ef8	-2.2528667
175	0x3d49bcaf	0.04925221
176	0xbeb1e1f5	-0.34742704
177	0x3e79ed49	0.24406923
178	0x3f2b31f6	0.6687311
179	0xbf04ea73	-0.5192024
180	0xbd69ffe4	-0.057128802
181	0xc00a10e4	-2.157281
182	0x3dd33fe3	0.1031492
183	0xbfcc50ee	-1.5962198
184	0xbec4259a	-0.38309938
185	0xbfda85eb	-1.7072119
186	0x3f1ab8f5	0.6043847
187	0xbfaa8f21	-1.332493
188	0x3ecefdd2	0.40428025
189	0x3e80befe	0.25145715
190	0x3de35350	0.11099875
191	0xbcd58a57	-0.026066942
192	0x3d3a95f6	0.04555317
193	0x3e61c20b	0.22046678
194	0xbf2c3214	-0.67263913
195	0xbf8c788f	-1.0974292
196	0x3f9e0cf3	1.2347702
197	0xbf67be7e	-0.90525043
198	0x3f65b41e	0.8972796
199	0xbe48301e	-0.19549605
200	0xbff6d555	-1.9283854
201	0xbf138fb2	-0.57641137
202	0xbeaaf565	-0.33390346
203	0xbfc895bb	-1.5670694
204	0xbfbc5268	-1.4712648
205	0x3fbcc2b0	1.4746914
206	0xbe941d59	-0.2892864
207	0xbcda5cac	-0.026655518
208	0xbf204bd3	-0.626157
209	0x3eed6ab2	0.46370465
210	0xbf2288ab	-0.6348979
211	0x3f5b1fc5	0.8559535
212	0xbf6a21b2	-0.91457665
213	0x3f179f20	0.5922718
214	0x3f390924	0.7227957
215	0x3fd138e8	1.6345491
216	0xbf6a94d3	-0.9163334
217	0xc00e4ffa	-2.2236314
218	0xbff44279	-1.9082786
219	0x3f7228ce	0.94593513
220	0x3f2f78fa	0.6854397
221	0xbf871b9d	-1.0555302
222	0x3f595b42	0.84904873
223	0x3ead8bed	0.33895817
224	0x3ffb8c0c	1.9652114
225	0xbf1c440e	-0.61041343
226	0x3fb6ce08	1.4281626
227	0x3e8b1be2	0.2716971
228	0xbfe3a935	-1.7786013
229	0x3f782b38	0.96940947
230	0xbf39a3de	-0.72515666
231	0xbfd14326	-1.6348617
232	0x3dcfb799	0.1014244
233	0x3d2c42fc	0.04205607
234	0x3f7bf7b0	0.98424816
235	0x3f553f5a	0.8329979
236	0x3ea3e0a7	0.32007334
237	0xbfb2f182	-1.3979952
238	0x3f8a2315	1.0791956
239	0xbf62f78d	-0.8865898
240	0x3fc388e6	1.5276153
241	0xbf9b9329	-1.2154285
242	0x3f127852	0.57214844
243	0xbeab447c	-0.33450687
244	0x401801f1	2.3751185
245	0xbf7193df	-0.9436626
246	0x3f545a0e	0.8294991
247	0x3f38c1c9	0.7217069
248	0x4003e821	2.061043
249	0xbf8b2860	-1.0871696
250	0xbe84e071	-0.25952485
251	0x40179776	2.3686194
252	0xbfb2fb3d	-1.3982922
253	0x40489daa	3.134623
254	0xbe9e2274	-0.3088566
255	0x3e9c4bc8	0.30526567

rnns.0.module.bias_ih_l0 f4 [200]
0	0xbf617ed0	-0.88084126
1	0xbf40c042	-0.7529336
2	0xbeeacd06	-0.45859545
3	0xbf1d9db4	-0.6156876
4	0xbf60126e	-0.8752812
5	0xbf451e12	-0.7699901
6	0xbefd7cfc	-0.49509418
7	0xbefa3ed8	-0.4887607
8	0xbe7bd783	-0.2459393
9	0xbf44ab81	-0.76824194
10	0xbf2d014e	-0.67580116
11	0xbf5fceed	-0.8742512
12	0xbf864afc	-1.0491633
13	0xbe9c8b93	-0.30575237
14	0xbf1a6a64	-0.6031859
15	0xbf0696d4	-0.52573895
16	0xbf0b1201	-0.54324347
17	0xbf286ccc	-0.6579101
18	0xbe6aea87	-0.22941028
19	0xbfa11799	-1.2585326
20	0xbf35f4bf	-0.7107658
21	0xbfc96ea8	-1.5736895
22	0xbefe1e03	-0.49632272
23	0xbef8f208	-0.48622155
24	0xbf46c7ac	-0.77648425
25	0xbf190646	-0.597752
26	0xbf1773c1	-0.59161
27	0xbf166d8a	-0.58760893
28	0xbf0e3eae	-0.5556439
29	0xbf013ecf	-0.50486463
30	0xbf1ec8f8	-0.62025404
31	0xbe84462f	-0.25834796
32	0xbf451c44	-0.76996255
33	0xbec00ef5	-0.3751141
34	0xbf8ebed8	-1.1151991
35	0xbefd62ef	-0.49489543
36	0xbf187a41	-0.59561545
37	0xbf3d0b69	-0.73845536
38	0xbf3d6098	-0.73975515
39	0xbf1b1876	-0.605842
40	0xbedc5981	-0.43037036
41	0xbf72dd65	-0.9486907
42	0xbf56b2a2	-0.8386632
43	0xbef33f0e	-0.47509044
44	0xbf86c42a	-1.0528615
45	0xbf525001	-0.82153326
46	0xbf802208	-1.0010386
47	0xbf26d486	-0.65168035
48	0xbe9d673b	-0.3074282
49	0xbf47c556	-0.78035486
50	0x3efddc78	0.49582267
51	0x3f98597a	1.1902306
52	0xbe31f353	-0.17377977
53	0x3e27c11c	0.16382259
54	0xbf57abdd	-0.8424662
55	0xbf9dc1a7	-1.2324723
56	0xbf9a60ac	-1.2060752
57	0xbf9d297f	-1.2278289
58	0xc005285b	-2.080588
59	0xbd3c813f	-0.046021696
60	0x3f04d621	0.51889235
61	0x3ed14a27	0.40876886
62	0xbf474ff4	-0.77856374
63	0xbfff1cd1	-1.9930669
64	0x3f341054	0.70337415
65	0x3f0dd480	0.55402374
66	0xbe0f2b4e	-0.13981363
67	0x3f1c3a74	0.6102669
68	0xbf8c3fb0	-1.0956936
69	0x3f5230aa	0.82105505
70	0xbed61ceb	-0.41818938
71	0x3f546950	0.82973194
72	0xbf61a773	-0.8814613
73	0xbf2032d2	-0.62577546
74	0xbfd9e5fb	-1.702331
75	0xbf01934b	-0.50615376
76	0xbede4278	-0.43410087
77	0x3f66c735	0.90147716
78	0xbf2b7ea2	-0.669901
79	0xbf11e43d	-0.5698889
80	0x3e049b2e	0.12949821
81	0xc008f1ca	-2.1397576
82	0x3ed1c68a	0.40971786
83	0x3ed229d4	0.41047537
84	0x3f11d02a	0.5695826
85	0xbf1ee1df	-0.620634
86	0xbf16797c	-0.5877912
87	0xbfb29151	-1.3950597
88	0xbe538683	-0.20656781
89	0xbd9f44ea	-0.07776816
90	0xbfdf54c5	-1.7447745
91	0x3ec35d76	0.38157243
92	0xbee7db12	-0.45284325
93	0xc0155f4e	-2.333942
94	0x3f3533fb	0.7078244
95	0x3f289e8d	0.6586693
96	0x3f9b3e94	1.2128472
97	0xbf818cb2	-1.0121062
98	0xbf837056	-1.0268657
99	0xbe437c78	-0.1909045
100	0xbe33140a	-0.17488113
101	0x3daa21c0	0.083072186
102	0x3a2a6242	0.0006499627
103	0x3d4d30b9	0.050095294
104	0xbd9554ae	-0.07291542
105	0xbbd31dfb	-0.006442783
106	0x3d40023e	0.04687714
107	0xbd910b1a	-0.070821956
108	0xbd393212	-0.045213766
109	0x3d107eec	0.035277292
110	0x3e66c7b0	0.22537112
111	0x3dd95d39	0.10613484
112	0xbe0d5ed0	-0.138057
113	0xbd67a085	-0.056549568
114	0xbe59084e	-0.21194574
115	0x3daebc75	0.08532039
116	0xbd8cd796	-0.06877057
117	0x3daafd84	0.083491355
118	0x3cbfe4ec	0.023424588
119	0xbe3b8bd9	-0.18315066
120	0x3e1d300e	0.15350363
121	0xbdc5223a	-0.09625669
122	0xbdcd4431	-0.10022772
123	0x3accb817	0.0015618828
124	0x3d0f4f4c	0.034987733
125	0xbc8b2e08	-0.016989723
126	0xbdf587cd	-0.119887926
127	0x3c8fb310	0.017541438
128	0xbae98e64	-0.0017818925
129	0xbe0e0094	-0.13867408
130	0x3d8212d4	0.063512474
131	0x3dafbeef	0.085813396
132	0x3ced92fb	0.02900075
133	0xbe5df91c	-0.21677059
134	0x3ca9facb	0.02074947
135	0x3d21ddc3	0.03951813
136	0x3d918e20	0.07107186
137	0xbb1f200c	-0.0024280576
138	0xbd0bfa08	-0.034173995
139	0x3d10710c	0.03526406
140	0xbdc5a7f4	-0.09651175
141	0x3d75af4a	0.05998162
142	0x3d635370	0.055499494
143	0xbde07be4	-0.1096113
144	0xbd5e9e87	-0.054350402
145	0x3c923c8d	0.017851138
146	0xbe375533	-0.17903595
147	0xbbf575b5	-0.0074908384
148	0x3da0b875	0.078476824
149	0x3dca9adb	0.098928176
150	0xbf4f0247	-0.8086285
151	0xbf7211a1	-0.9455815
152	0xbf3b7bef	-0.7323598
153	0xbebd977c	-0.37029636
154	0x3be7b6e0	0.007071361
155	0xbf07af42	-0.530018
156	0xbeba82cb	-0.36427912
157	0xbf09b5f4	-0.53793263
158	0xbebfffd0	-0.37499857
159	0xbf3a1a7c	-0.7269666
160	0xbf98b507	-1.1930245
161	0xbf9e4793	-1.2365593
162	0xbea27b95	-0.3173491
163	0xbf1551d2	-0.5832797
164	0xbf96ef81	-1.1791841
165	0xbf942572	-1.1573927
166	0xbf1c7ee5	-0.61131126
167	0xbf25d19e	-0.64772975
168	0xbf62c4c6	-0.885815
169	0xbf332887	-0.69983715
170	0xbf29ddd1	-0.6635409
171	0xbe58e277	-0.2118014
172	0xbf310773	-0.6915199
173	0xbea0d68a	-0.3141368
174	0xbf3dc521	-0.7412892
175	0xbfaaa3f1	-1.3331281
176	0xbf04d0bf	-0.5188102
177	0xbf7cf7dd	-0.9881571
178	0xbf08e63b	-0.53476304
179	0xbf3add1d	-0.7299364
180	0xbf372fea	-0.71557486
181	0xbeb316d9	-0.3497837
182	0xbf8209ab	-1.01592
183	0xbf968f71	-1.1762525
184	0xbeea714c	-0.45789564
185	0xbefb1097	-0.49036095
186	0xbed24793	-0.41070232
187	0xbec79807	-0.38983175
188	0xbf27eaa0	-0.65592384
189	0xbf16209e	-0.5864352
190	0xbeeab346	-0.458399
191	0xbf3b2968	-0.73110056
192	0xbfb06c75	-1.3783098
193	0xbe920b04	-0.2852403
194	0xbf84ee7f	-1.0385283
195	0xbf88faf1	-1.0701581
196	0xbf7e4113	-0.99318045
197	0xbe4d1791	-0.20028521
198	0xbec23b67	-0.37935945
199	0xbf064f6f	-0.52464956

rnns.0.module.bias_hh_l0 f4 [200]
0	0xbf2b6cb2	-0.6696273
1	0xbf3d354c	-0.7390945
2	0xbf2027d3	-0.62560767
3	0xbf4184f7	-0.75593513
4	0xbf63aef8	-0.88938856
5	0xbf467ad9	-0.775312
6	0xbee7f205	-0.45301834
7	0xbe7747aa	-0.24148431
8	0xbe460043	-0.19336037
9	0xbf19ef07	-0.6013035
10	0xbf0e9cac	-0.5570781
11	0xbf5d2a37	-0.8639254
12	0xbf820194	-1.0156732
13	0xbed996ec	-0.42497957
14	0xbef2985a	-0.4738186
15	0xbecdb8cc	-0.4018005
16	0xbefc1720	-0.49236393
17	0xbf4029d5	-0.7506383
18	0xbeddd706	-0.43328112
19	0xbf996d12	-1.1986411
20	0xbf4d4ec4	-0.8019831
21	0xbfc52cd7	-1.5404309
22	0xbef08bae	-0.46981567
23	0xbed142cf	-0.40871283
24	0xbf1de919	-0.61683804
25	0xbeff2536	-0.49833077
26	0xbf19f647	-0.60141414
27	0xbf334590	-0.7002802
28	0xbf3238a5	-0.6961768
29	0xbf16c153	-0.5888874
30	0xbf194145	-0.5986522
31	0xbef04301	-0.4692612
32	0xbf272bb7	-0.6530108
33	0xbe4aa9fd	-0.19791408
34	0xbf802e7a	-1.0014184
35	0xbf0e10dc	-0.55494475
36	0xbf429b9f	-0.7601871
37	0xbf3bed53	-0.73409003
38	0xbf6d40c7	-0.9267697
39	0xbf24835a	-0.64262927
40	0xbf17de87	-0.59323925
41	0xbf7cdcd1	-0.9877444
42	0xbf425362	-0.7590848
43	0xbee7ac9c	-0.45248878
44	0xbf99353d	-1.1969372
45	0xbf2f34f3	-0.6844017
46	0xbf7c8169	-0.98634964
47	0xbf44d7e0	-0.768919
48	0xbebd670d	-0.36992684
49	0xbf35d7da	-0.7103249
50	0x3ec576cc	0.38567197
51	0x3f916845	1.1359946
52	0xbe6dce9b	-0.23223345
53	0x3c97f545	0.01854957
54	0xbf5490c5	-0.830334
55	0xbfa27a5f	-1.2693595
56	0xbfa32d02	-1.274811
57	0xbf9abf0a	-1.208955
58	0xc0042b00	-2.0651245
59	0xbd2b0d40	-0.041760683
60	0x3f371d6b	0.71529263
61	0x3f1dc0f4	0.6162255
62	0xbf7f3568	-0.99690866
63	0xbffc0d5f	-1.969158
64	0x3f4d394d	0.8016556
65	0x3ee3b2ad	0.44472256
66	0x3de8d5ba	0.1136889
67	0x3f4de60e	0.8042916
68	0xbf9af7ad	-1.2106835
69	0x3f5d7d8b	0.8651969
70	0xbe6b379e	-0.22970435
71	0x3f638891	0.8888026
72	0xbf8b7590	-1.0895252
73	0xbf17c8cb	-0.5929076
74	0xbfd310c0	-1.6489487
75	0xbf1b5224	-0.6067221
76	0xbf0b917c	-0.54518867
77	0x3f778f0f	0.96702665
78	0xbefc61d1	-0.49293378
79	0xbf09a164	-0.5376189
80	0x3ded89f1	0.11598576
81	0xc00ec7b1	-2.2309382
82	0x3efe926c	0.49721086
83	0x3e9f908c	0.31164968
84	0x3f352d56	0.707723
85	0xbf186327	-0.59526294
86	0xbf1f9d10	-0.62349033
87	0xbfaa65e2	-1.3312342
88	0xbe866d98	-0.26255488
89	0xbe6df810	-0.2323916
90	0xbfd64347	-1.6739281
91	0x3ece39de	0.40278524
92	0xbf02e24e	-0.51126564
93	0xc01cbea4	-2.4491358
94	0x3f157a50	0.5838976
95	0x3f23eefb	0.6403653
96	0x3f82435a	1.0176804
97	0xbf9dc9c7	-1.2327203
98	0xbf6f46f1	-0.93467623
99	0xbdc03793	-0.093856
100	0x3bb4a0f3	0.0055123507
101	0xbd31ab0a	-0.043376006
102	0xbe428509	-0.18996061
103	0xbdf87402	-0.12131502
104	0x3cfe4831	0.031040283
105	0xbcb387fc	-0.021915428
106	0xbd56da01	-0.052454
107	0x3d99ba4a	0.07506235
108	0x3ccd3918	0.025051638
109	0x3d5c07a5	0.053718228
110	0x3dafdc3f	0.085869305
111	0x3dbbc990	0.09169304
112	0xbc998208	-0.018738762
113	0x3dc4cd14	0.09609428
114	0xbe7260a2	-0.23669675
115	0x3e73d7e3	0.23812823
116	0x3c5c76d0	0.0134560615
117	0xbe0a051e	-0.13478515
118	0x3de0c7f2	0.109756365
119	0xbda33f9d	-0.07971118
120	0xbd8ee790	-0.06977761
121	0xbcc6ecbc	-0.024282806
122	0x3cf68520	0.030092776
123	0x3e059f71	0.13049103
124	0xbe297619	-0.16548957
125	0x3dab7e8c	0.08373746
126	0xbd8dbaf5	-0.06920425
127	0xbd1f7325	-0.03892817
128	0x3c8e26bf	0.01735246
129	0x3dba364d	0.09092388
130	0x3d8670d4	0.06564489
131	0xbda86a3e	-0.08223389
132	0x3e85bc06	0.26120013
133	0xbd4cb64e	-0.049978547
134	0x3cfaaf1b	0.030601075
135	0x3dd9ded7	0.106382065
136	0xbd7263ec	-0.059177324
137	0x3d9d59f9	0.076831765
138	0x3c88e4c4	0.016710646
139	0xbb9ed923	-0.004847662
140	0xbd267515	-0.040639002
141	0xbc40fc64	-0.011778925
142	0x3e807eca	0.25096732
143	0x3da31bc9	0.07964284
144	0xbb8ec252	-0.004356661
145	0x3d9d2c3b	0.07674452
146	0xbca9dbb6	-0.02073465
147	0x3c2d1064	0.01056299
148	0xbcb552c1	-0.022134187
149	0xbcbdc71c	-0.023166232
150	0xbf86b49c	-1.0523868
151	0xbf71ac1a	-0.9440323
152	0xbf2f3d89	-0.6845327
153	0xbef977e3	-0.4872428
154	0x3d154748	0.036444932
155	0xbec333e9	-0.38125542
156	0xbee4dfc5	-0.44701973
157	0xbf197a4f	-0.59952253
158	0xbf073b50	-0.5282488
159	0xbf0e6600	-0.5562439
160	0xbf82322e	-1.0171564
161	0xbf87a15e	-1.059612
162	0xbea6fa0f	-0.32612655
163	0xbf008b40	-0.5021248
164	0xbf9479f5	-1.1599718
165	0xbf74bb5c	-0.9559839
166	0xbf0a9c03	-0.54144305
167	0xbf356d8b	-0.70870274
168	0xbf5d54cf	-0.8645753
169	0xbf25cff0	-0.6477041
170	0xbf564ed3	-0.83714026
171	0xbe9b1432	-0.30288845
172	0xbf67d2c5	-0.90555984
173	0xbefef2ae	-0.49794525
174	0xbf35427b	-0.70804566
175	0xbfa9c33a	-1.3262703
176	0xbf118f64	-0.5685942
177	0xbf6600ef	-0.89845175
178	0xbecac1e2	-0.39601046
179	0xbf4233a7	-0.75860065
180	0xbf0d902f	-0.5529813
181	0xbef1e726	-0.47246665
182	0xbf88a037	-1.0673894
183	0xbf91ff4f	-1.1406039
184	0xbef78b8f	-0.48348662
185	0xbef8abcd	-0.48568574
186	0xbea20af1	-0.31648973
187	0xbed1e5d7	-0.40995666
188	0xbf146cdd	-0.5797861
189	0xbf0f6049	-0.56006294
190	0xbed9e531	-0.42557672
191	0xbf0fcac0	-0.56168747
192	0xbfa9aee2	-1.3256495
193	0xbe5472bd	-0.20746894
194	0xbf6ff143	-0.9372751
195	0xbf783f07	-0.9697117
196	0xbf77c8eb	-0.9679095
197	0xbd8b0128	-0.0678733
198	0xbefbf27a	-0.49208432
199	0xbf24e607	-0.64413494
